model/model.pth (torch, 17216 bytes, 4 tensors)

linear1.weight f4 [256, 11]
-0.3478318 -0.34442246 0.5303068 0.21860227 -0.4416339 -0.0042455057 0.28170285 0.13002329
-0.46311343 0.28933468 -0.16279612 0.009873392 0.22181734 -0.24935836 0.10407414 -0.08071748
0.103686444 0.023020098 -0.123309284 -0.1862675 0.01609053 0.021890733 -0.18747008 -0.24814638
0.48880583 0.06795765 0.28088635 0.20856 0.08507572 -0.17038071 -0.07230608 -0.05977598
-0.052864004 -0.35296518 -0.16651246 0.086886875 -0.16089197 -0.2077466 -0.092473626 -0.16635323
-0.009487864 0.101422 -0.27024502 0.11528671 0.23036455 0.21106817 -0.5986101 0.21016453
-0.07165212 0.24282165 -0.020244697 0.10640241 0.102725305 -0.1353174 0.122752346 -0.108515434
0.5197069 -0.37597844 0.04471086 0.12586316 -0.32152733 0.04297537 0.16868494 0.12735504
0.3448981 0.2220789 0.4195522 -0.25322813 0.19451869 0.28201646 0.042981673 0.024887936
0.111777015 0.03412371 0.31205696 0.030952599 0.20499933 -0.13440914 -0.2558377 -0.06208314
-0.3543587 0.22539917 0.14806518 0.2616601 0.4000008 -0.21724537 -0.06447266 -0.2215508
-0.44475725 0.24743052 -0.01420272 0.09356715 0.17394197 -0.15855238 -0.3681012 0.20105587
0.21201734 0.19705309 -0.40605438 -0.23336086 -0.07767528 0.22981358 0.14513162 -0.31144908
0.36533663 -0.31584707 -0.3639817 0.29733798 -0.34203312 -0.5598696 -0.20342056 -0.4035616
0.4486461 0.06466129 0.020284805 0.07679303 -0.19992597 -0.20867938 0.034607753 -0.17505851
0.11545572 0.032235213 0.13971928 0.47489223 0.05343763 -0.14615615 0.019211983 -0.1899154
-0.1900768 0.030725593 0.30404377 -0.08567808 -0.29828048 0.02292046 -0.096514665 0.08362969
-0.03870517 0.0843223 -0.17564711 -0.09108379 0.090323225 -0.054355644 0.24529403 0.089735225
0.039631885 0.1829794 -0.061628114 0.043705884 -0.22251245 0.14399257 -0.07197031 -0.14173144
0.33668563 -0.20641223 -0.2906192 0.112126596 0.014325888 -0.1237696 -0.021048546 -0.12999399
0.35320282 -0.21178347 0.15870431 -0.026786072 -0.38396534 0.17901213 0.4931671 -0.30788246
-0.10838837 -0.18656805 -0.29442725 -0.08280987 0.05379201 0.25023314 0.31684005 0.17650221
0.25908265 0.1625959 -0.19041514 0.24433029 0.11948675 0.21805692 -0.26685125 -0.14812484
-0.2806303 0.04589184 -0.1726165 0.0013072181 -0.42916456 0.16846703 0.027557656 -0.41085148
-0.07315868 0.0289046 0.08726109 0.26812196 0.19052601 0.04857463 0.074201874 0.39313582
0.044171553 -0.14517355 -0.019899668 0.121265136 0.041635115 -0.03973403 -0.14423442 0.42706612
-0.013251988 -0.07951758 -0.10004778 -0.13297501 0.3149599 -0.25212696 0.276542 0.092997484
0.0070335153 -0.5791455 0.024488816 -0.0022915546 0.35691237 -0.22112162 0.38123667 -0.027548661
-0.15016247 0.4327746 -0.40303853 0.009246978 0.14644185 -0.49281737 0.38101467 0.024886243
0.2952745 -0.097284354 0.07879014 -0.3642398 -0.42663917 0.05527941 -0.11561559 0.3545463
0.3881992 0.24215339 0.11524563 0.048051972 -0.15550363 -0.16626194 -0.032032054 0.043052338
0.01235618 0.28381014 0.14137071 0.32295445 0.38863504 -0.18275306 -0.21075064 -0.25414035
00000000: 0217 b2be 2458 b0be 30c2 073f 46d9 5f3e
00000010: d71d e2be e21d 8bbb 5b3b 903e d324 053e
00000020: 341d edbe ad23 943e 07b4 26be 02c4 213c
00000030: 1624 633e cc57 7fbe d324 d53d 354f a5bd
00000040: 8f59 d43d a594 bc3c 9489 fcbd e8bc 3ebe
00000050: 4ad0 833c 3254 b33c 28f8 3fbe 161a 7ebe
00000060: c244 fa3e 612d 8b3d 56d0 8f3e c190 553e
00000070: 2e3c ae3d 4878 2ebe 3615 94bd a8d7 74bd
00000080: ed87 58bd dab7 b4be 3e82 2abe bff1 b13d
00000090: ddc0 24be 86bb 54be d062 bdbd 8058 2abe
000000a0: fc72 1bbc 56b6 cf3d 8e5d 8abe 701b ec3d
000000b0: afe4 6b3e 4122 583e 833e 19bf 5f35 573e
000000c0: 59be 92bd 3da6 783e 35d8 a5bc 82e9 d93d
000000d0: a561 d23d a590 0abe 9565 fb3d 573d debd
000000e0: 830b 053f 3f80 c0be bc22 373d 46e2 003e
000000f0: 3b9f a4be f106 303d bfbb 2c3e 5c69 023e
00000100: 7c96 b03e a768 633e 8ccf d63e 1ea7 81be
00000110: e82f 473e 7664 903e 8d0d 303d c9e1 cb3c
00000120: 59eb e43d 4ec5 0b3d eec5 9f3e 4e90 fd3c
00000130: 58eb 513e 8da2 09be 29fd 82be e44a 7ebd
00000140: 816e b5be 0acf 663e 669e 173e 50f8 853e
00000150: e8cc cc3e 9275 5ebe 3e0a 84bd 37de 62be
00000160: 39b7 e3be 6d5e 7d3e 86b2 68bc 22a0 bf3d
00000170: d81d 323e 8e5b 22be c377 bcbe 97e1 4d3e
00000180: 131b 593e 49c8 493e 5ce6 cfbe 26f6 6ebe
00000190: 3814 9fbd 4054 6b3e 629d 143e 4176 9fbe
000001a0: 670d bb3e b5b6 a1be cf5b babe af3c 983e
000001b0: f71e afbe 9d53 0fbf 7b4d 50be a09f cebe
000001c0: f1b4 e53e 236d 843d 522c a63c aa45 9d3d
000001d0: 65b9 4cbe 0cb0 55be dcc0 0d3d 8a42 33be
000001e0: 0c74 ec3d 1209 043d 9212 0f3e 1325 f33e
000001f0: 6be1 5a3d f5a9 15be 7362 9d3c 2f79 42be
00000200: 7ea3 42be 3db4 fb3c a0ab 9b3e fd77 afbd
00000210: 38b8 98be b0c3 bb3c 7ba9 c5bd 0b46 ab3d
00000220: 5089 1ebd 2cb1 ac3d d6dc 33be 238a babd
00000230: 62fb b83d 06a4 5ebd 5c2e 7b3e 1ac7 b73d
00000240: 0b55 223d f45e 3b3e c36d 7cbd f104 333d
00000250: 4eda 63be ca72 133e 2b65 93bd 0c22 11be
00000260: 0f62 ac3e ba5d 53be 0acc 94be a1a2 e53d
00000270: 21b7 6a3c eb7a fdbd 006e acbc 251d 05be
00000280: 00d7 b43e c4dd 58be 6283 223e 776e dbbc
00000290: 1b97 c4be f54e 373e 6680 fc3e c5a2 9dbe
000002a0: b9fa ddbd b20b 3fbe 2bbf 96be 3998 a9bd
000002b0: 0355 5c3d 8f1e 803e dc38 a23e ffbc 343e
000002c0: 7ba6 843e 8a7f 263e 30fc 42be b831 7a3e
000002d0: 78b5 f43d 504a 5f3e baa0 88be 0aae 17be
000002e0: c6ae 8fbe 15f9 3b3d 61c2 30be f656 ab3a
000002f0: 75bb dbbe 9f82 2c3e 98c0 e13c 205b d2be
00000300: 38d4 95bd 57c9 ec3c f1b5 b23d 4847 893e
00000310: 4019 433e 31f6 463d 27f7 973d 1949 c93e
00000320: 3bed 343d 60a8 14be a104 a3bc db59 f83d
00000330: 9589 2a3d 26c0 22bd 30b2 13be 69a8 da3e
00000340: de1e 59bc 1dda a2bd dae5 ccbd 9a2a 08be
00000350: 6d42 a13e c916 81be ea96 8d3e 7775 be3d
00000360: 6779 e63b e142 14bf c59c c83c e82d 16bb
00000370: 38bd b63e b56d 62be 7431 c33e bbad e1bc
00000380: 31c4 19be a294 dd3e 115b cebe a380 173c
00000390: daf4 153e 8f52 fcbe 5b14 c33e 3cde cb3c
000003a0: 382e 973e 053d c7bd ba5c a13d a47d babe
000003b0: 7370 dabe aa6c 623d dec7 ecbd 1887 b53e
000003c0: 0cc2 c63e 0ff7 773e e705 ec3d 25d2 443d
000003d0: 583c 1fbe 9240 2abe 0b34 03bd a657 303d
000003e0: 9371 4a3c 904f 913e 7cc3 103e 495a a53e
000003f0: 2cfb c63e 9e23 3bbe 04cf 57be af1e 82be

linear1.bias f4 [256]
0.17925477 -0.23142184 0.22765751 -0.2795279 -0.10167664 -0.17868008 -0.377067 -0.051752362
0.16099675 -0.035124827 0.016671572 0.07389194 -0.060305245 -0.09221583 -0.26821882 0.024476055
-0.12962173 -0.1527863 -0.029386181 0.25458217 -0.013640618 0.05360676 -0.18211164 -0.23389935
-0.17571902 0.006212922 0.18472968 -0.110988766 0.24496752 -0.09493496 -0.19767621 0.076557055
-0.1537708 -0.20141852 0.16056792 -0.041309774 0.04969825 -0.07279758 0.17927179 0.006393336
0.1940657 -0.1278006 -0.15223426 0.21677461 -0.018317886 -0.111727126 0.09010735 0.051646713
-0.26095837 -0.18221803 0.02938916 0.02020762 0.16267204 0.19486447 -0.1049793 0.010378601
-0.037071165 0.24114427 0.0047996934 -0.2003828 0.16099156 0.07403207 -0.10631388 -0.120104045
-0.10077027 -0.17588772 -0.22440553 -0.25243384 -0.014280393 0.147177 -0.02703422 0.20976996
-0.14672992 -0.01329839 -0.24832839 -0.24585904 0.104793936 0.4659088 0.08679211 0.19373225
-0.008288597 0.066328116 0.117596716 -0.036704604 0.40839136 0.17236517 -0.02507551 -0.29002893
0.29168746 -0.124019004 -0.2127169 -0.09960055 -0.07827078 0.5160689 -0.19206095 0.16085573
0.1451568 0.11428913 -0.084368244 -0.0082553495 0.05083778 -0.15547937 0.04149809 -0.16361228
-0.045019396 -0.024438923 -0.02252678 -0.2126169 -0.021080058 -0.2160536 0.11537842 -0.19194749
-0.27081278 -0.034469828 -0.09713331 -0.0077720014 0.037493337 0.1227707 0.12875362 -0.17487827
0.0020332986 0.33132058 0.33221 0.13514349 0.11592403 0.18714704 -0.004965846 0.059550047
-0.16912995 0.06403135 0.17511757 0.009342825 -0.21507473 0.0978701 -0.393065 -0.057229135
-0.11846582 -0.29337364 0.036460135 0.15842423 0.15893362 -0.17066488 0.2377963 -0.22899067
-0.028852407 -0.047982495 -0.2878558 0.027725374 0.02267243 -0.2532372 -0.017221905 0.24535641
-0.072305106 -0.37727287 -0.14444855 -0.0874649 0.21952912 -0.102124915 -0.25156093 -0.21181242
0.061948985 0.07936568 0.055521023 0.21619987 -0.20383477 0.035832286 -0.021961197 0.011447815
0.04958909 -0.27346975 -0.02391484 0.37024105 -0.2698241 0.40786108 0.032229055 0.16667388
0.07041035 -0.22143938 -0.10644215 -0.045293737 -0.44612452 0.11627561 -0.122151606 -0.0079198675
0.20749612 -0.10400739 -0.16021661 0.018297324 -0.057674397 -0.11288115 -0.26291165 0.14733493
-0.014532019 -0.11667766 -0.13703574 0.032040797 0.3621279 -0.20317939 -0.32660392 -0.17813443
-0.171214 -0.007739585 0.027696634 -0.06772917 0.034896903 0.024346 0.27734935 0.016450025
0.016857702 0.06595539 0.1641689 0.017490156 -0.02990994 0.107425794 -0.32762623 -0.046673607
0.28109217 -0.1460729 -0.29891858 -0.24012671 0.12734208 -0.18399248 -0.10785427 -0.065235905
0.24422812 -0.35201713 -0.35851532 -0.07383345 -0.03370233 -0.08785037 -0.04213211 -0.1276733
-0.1276623 -0.3407096 0.059089966 -0.07508033 -0.2673589 0.23044558 -0.16691427 0.14146903
-0.25539967 -0.14480962 -0.13253611 -0.29514754 -0.2589686 -0.005324869 0.025856802 0.028933268
0.0132897 0.2242123 0.05880057 -0.30402994 0.23538846 -0.11275255 -0.108611 -0.33508053
00000000: 908e 373e d9f9 6cbe 0d1f 693e 481e 8fbe
00000010: d83b d0bd e9f7 36be ed0e c1be 49fa 53bd
00000020: 55dc 243e 0ddf 0fbd d292 883c a854 973d
00000030: a202 77bd a7db bcbd fa53 89be 0282 c83c
00000040: 8fbb 04be 0374 1cbe 4abb f0bc 9858 823e
00000050: e67c 5fbc c392 5b3d 797b 3abe 5083 6fbe
00000060: b0ef 33be c495 cb3b c729 3d3e 144e e3bd
00000070: c4d8 7a3e 436d c2bd a26b 4abe f2c9 9c3d
00000080: 1876 1dbe a840 4ebe eb6b 243e 7034 29bd
00000090: 6490 4b3d e616 95bd 0693 373e 317f d13b
000000a0: 29b9 463e 29de 02be 4ce3 1bbe 2afa 5d3e
000000b0: 640f 96bc 31d1 e4bd 348a b83d 818b 533d
000000c0: 569c 85be 5d97 3abe 89c1 f03c 738a a53c
000000d0: 8093 263e 8d8a 473e 63ff d6bd 020b 2a3c
000000e0: efd7 17bd 86ee 763e bf46 9d3b 2631 4dbe
000000f0: f9da 243e 209e 973d 17bb d9bd 1cf9 f5bd
00000100: a560 cebd e91b 34be 90ca 65be 023f 81be
00000110: 4ff8 69bc 91b5 163e de76 ddbc f0cd 563e
00000120: 5e40 16be 7ee1 59bc cc49 7ebe 79c2 7bbe
00000130: 349e d63d 998b ee3e 10c0 b13d bf61 463e
00000140: e5cc 07bc 09d7 873d 8cd6 f03d 9157 16bd
00000150: ac18 d13e 7f80 303e 286b cdbc ac7e 94be
00000160: 0f58 953e adfd fdbd 76d2 59be 60fb cbbd
00000170: 6e4c a0bd 171d 043f a0ab 44be 5db7 243e
00000180: fca3 143e 6b10 ea3d 42c9 acbd 7241 07bc
00000190: 473b 503d fc35 1fbe e7f9 293d fa89 27be
000001a0: 4266 38bd 2334 c8bc 158a b8bc 3fb8 59be
000001b0: 16b0 acbc 283d 5dbe 854b ec3d e28d 44be
000001c0: f9a7 8abe 3c30 0dbd d4ed c6bd 46ac febb
000001d0: 9d92 193d 346f fb3d fdd7 033e 4a13 33be
000001e0: 1741 053b daa2 a93e 6e17 aa3e 0e63 0a3e
000001f0: 9469 ed3d 79a3 3f3e 89b8 a2bb c0ea 733d
00000200: 6730 2dbe de22 833d 0552 333e a612 193c
00000210: 8d3c 5cbe 1e70 c83d d13f c9be 1969 6abd
00000220: 359e f2bd 1235 96be 3957 153d f639 223e
00000230: 7fbf 223e c6c2 2ebe e080 733e 887c 6abe
00000240: e25b ecbc 4b89 44bd d661 93be 5320 e33c
00000250: 88bb b93c 4ea8 81be f414 8dbc b63e 7b3e
00000260: b314 94bd e929 c1be 52ea 13be cc20 b3bd
00000270: 3ecc 603e de26 d1bd 98cc 80be 5be5 58be
00000280: 38be 7d3d 798a a23d 036a 633d 8063 5d3e
00000290: 10ba 50be e0c4 123d f8e7 b3bc 9e8f 3b3c
000002a0: ee1d 4b3d 3a04 8cbe 0ee9 c3bc 3c90 bd3e
000002b0: 6226 8abe 2bd3 d03e 9d02 043d 8fac 2a3e
000002c0: 4d33 903d 01c1 62be 58fe d9bd ed85 39bd
000002d0: 6f6a e4be e821 ee3d 9f2a fabd 55c2 01bc
000002e0: dd79 543e d401 d5bd d30f 24be 45e4 953c
000002f0: fd3b 6cbd 3b2e e7bd 5b9c 86be f8de 163e
00000300: b517 6ebc b2f4 eebd 1953 0cbe 363d 033d
00000310: d468 b93e 420e 50be a138 a7be df68 36be
00000320: b952 2fbe 589c fdbb 0de4 e23c 97b5 8abd
00000330: 0ef0 0e3d 4371 c73c bc00 8e3e 34c2 863c
00000340: 2a19 8a3c 9f13 873d e41b 283e 8447 8f3c
00000350: b105 f5bc 0e02 dc3d a0be a7be d32c 3fbd
00000360: 50eb 8f3e 2294 15be db0b 99be c7e3 75be
00000370: f665 023e 8668 3cbe b3e2 dcbd 679a 85bd
00000380: f016 7a3e 973b b4be 528f b7be fe35 97bd
00000390: 740b 0abd e5ea b3bd b892 2cbd cabc 02be
000003a0: e8b9 02be 7d71 aebe 5208 723d b7c3 99bd
000003b0: 44e3 88be edf9 6b3e 93eb 2abe 42dd 103e
000003c0: bfc3 82be f948 14be 8cb7 07be 941d 97be
000003d0: 8897 84be 3d7c aebb a5d1 d33c 7605 ed3c
000003e0: 0bbd 593c e997 653e ded8 703d d0a9 9bbe
000003f0: ac09 713e cfea e6bd 726f debd ad8f abbe

linear2.weight f4 [3, 256]
0.2365633 -0.0040948284 0.16666877 0.0044920524 -0.02712516 -0.17728817 -0.16187549 -0.43192336
0.25282136 -0.2416453 -0.09302287 0.024152791 -0.12518893 -0.073375724 -0.01982484 -0.084972635
0.057084646 -0.118533775 -0.053204644 0.26083094 -0.3475069 -0.19480863 -0.15148667 -0.044316843
-0.11500532 0.017922144 0.04746178 0.20522884 0.22335823 -0.7495302 -0.38588297 -0.28181595
0.013966963 -0.57384735 0.2220134 0.018152459 -0.024094064 -0.13990842 0.08293099 0.07887694
0.2582941 -0.21664539 -0.034402806 0.20640726 0.0750132 -0.032823507 -0.058638543 0.31084716
-0.23648255 -0.32917213 0.32611868 -0.1495905 0.38770851 0.30598435 -0.09078088 0.1779278
-0.017540233 0.40019095 -0.017374696 -0.29839635 0.075660326 -0.2053125 -0.6885199 -0.19722171
-0.47877908 -0.1537867 -0.25814092 -0.0222454 -0.05881963 0.082502425 -0.15283863 0.17694055
-0.503053 -0.28284815 -0.039717536 -0.0006257673 0.05250669 0.43600917 0.021688845 0.06266309
-0.016418 -0.67111075 -0.3382776 -0.038940713 0.32449055 0.022514421 0.27498755 -0.18518044
0.14177424 -0.19268294 -0.07898859 -0.17457446 -0.032985177 0.26938546 -0.18605353 0.34913567
0.053934556 -0.2836673 -0.45601523 0.10531146 -0.32897273 -0.0011538777 0.42788222 -0.45548868
-0.15245351 -0.101524316 0.17393556 -0.28566444 -0.062140096 0.0079569705 0.022624275 -0.327597
-0.16584082 0.33764997 0.2560004 -0.27972966 0.4271444 -0.33503816 0.015416682 0.31327683
-0.100406274 0.27822736 0.12865905 0.020956408 -0.38451985 0.030903213 -0.032111328 -0.18923643
-0.20207994 -0.26014918 0.3309965 -0.16570383 0.060223967 -0.33219206 0.02545146 -0.11960856
-0.30176336 0.035770476 -0.22093242 0.0159801 0.025973517 -0.27014235 0.39000115 -0.072013475
0.12716256 -0.79617506 -0.23266926 -0.032345235 -0.32473493 -0.19519563 -0.4269306 0.18014237
-0.40760607 -0.025069244 -0.10782953 -0.33871117 0.3064477 -0.028319696 0.31486562 -0.18928672
0.32170525 -0.12391214 -0.20313223 0.016963165 -0.07394409 0.24833196 0.03788528 0.2771074
0.15336473 -0.28319576 -0.35987356 0.2892717 -0.14652255 0.29235175 0.0076059434 0.066169016
-0.0029868316 -0.31146523 -0.2629854 0.041351452 0.06383752 0.07432224 -0.029323839 0.2691152
0.030860972 0.35835478 -0.24555072 -0.40308502 -0.15717794 0.018207572 -0.26481327 0.19517586
-0.6645922 0.26589614 0.16668059 0.010797445 0.38434228 -0.040433142 -0.010631142 -0.027677905
-0.42579326 0.14165649 -0.24673119 0.13769782 -0.22817686 -0.4571074 0.17245759 -0.42452645
-0.24969307 0.3250537 -0.38848585 0.042181365 -0.061128296 -0.03883098 0.0806099 -0.3282285
0.31421155 -0.11799666 -0.11063808 -0.029507583 0.363153 -0.20260562 -0.20734356 0.05898264
0.086904265 0.014276735 -0.002123407 -0.1966292 -0.033839013 -0.38927191 -0.118224345 0.3348456
-0.021655437 -0.16858408 0.4446634 -0.1375496 0.22558145 0.18543334 -0.048571996 0.1803754
-0.49615267 -0.10640322 -0.29062474 0.0613996 -0.18031256 -0.37437454 -0.017295424 0.3936533
0.0069481567 0.2413346 0.13390532 -0.34977055 0.17210543 -0.3211848 0.079774894 0.016544161
00000000: a63d 723e e92d 86bb 38ab 2a3e 1132 933b
00000010: 9535 debc 088b 35be b0c2 25be 0f25 ddbe
00000020: cd71 813e de71 77be c682 bebd 13dc c53c
00000030: 8731 00be 0346 96bd b467 a2bc 2206 aebd
00000040: 97d1 693d d6c1 f2bd 1ded 59bd a28b 853e
00000050: 6dec b1be ea7b 47be 521f 1bbe 9485 35bd
00000060: e987 ebbd 76d1 923c 4967 423d 8227 523e
00000070: 05b8 643e 36e1 3fbf 7492 c5be 2e4a 90be
00000080: b0d5 643c a9e7 12bf 7b57 633e 77b4 943c
00000090: ea60 c5bc 2744 0fbe b9d7 a93d 3c8a a13d
000000a0: 203f 843e 4ad8 5dbe f5e9 0cbd 6d5c 533e
000000b0: 85a0 993d f171 06bd f82e 70bd 5c27 9f3e
000000c0: 7b28 72be 4089 a8be 07f9 a63e 412e 19be
000000d0: bb81 c63e fba9 9c3e 53eb b9bd b532 363e
000000e0: 89b0 8fbc d4e5 cc3e 6155 8ebc 68c7 98be
000000f0: cdf3 9a3d 713d 52be d742 30bf 7df4 49be
00000100: 8822 f5be 437a 1dbe 0c2b 84be fc3b b6bc
00000110: daec 70bd 08f7 a83d bb81 1cbe e72f 353e
00000120: 15c8 00bf 79d1 90be dbae 22bd 880a 24ba
00000130: 4111 573d 983c df3e ceac b13c 8255 803d
00000140: 0b7f 86bc eacd 2bbf b932 adbe 4c80 1fbd
00000150: a023 a63e 2a70 b83c 2bcb 8c3e f19f 3dbe
00000160: 442d 113e ad4e 45be c5c4 a1bd a6c3 32be
00000170: 771b 07bd e4ec 893e d184 3ebe e9c1 b23e
00000180: 7bea 5c3d d73c 91be d47a e9be 89ad d73d
00000190: 1d6f a8be b63d 97ba 6113 db3e d035 e9be
000001a0: c61c 1cbe fbeb cfbd 2a1c 323e 9c42 92be
000001b0: 9d86 7ebd f45d 023c 8b56 b93c cbba a7be
000001c0: 2dd2 29be 75e0 ac3e 7c12 833e ba38 8fbe
000001d0: acb2 da3e 1f8a abbe 4096 7c3c d265 a03e
000001e0: cea1 cdbd d173 8e3e 33bf 033e c6ac ab3c
000001f0: c9df c4be bc28 fd3c 2b87 03bd 32c7 41be
00000200: 0bee 4ebe 4632 85be 6078 a93e 44ae 29be
00000210: 68ad 763d 1415 aabe 957f d03c 55f5 f4bd
00000220: ba80 9abe 1084 123d 1c3c 62be b3e8 823c
00000230: 6ac6 d43c 1950 8abe 3bae c73e cd7b 93bd
00000240: e736 023e 21d2 4bbf da40 6ebe 707c 04bd
00000250: a843 a6be 5de1 47be a696 dabe 3e77 383e
00000260: beb1 d0be 045e cdbc bbd5 dcbd 8d6b adbe
00000270: b7e6 9c3e b5fe e7bc 1136 a13e 61d4 41be
00000280: 8db6 a43e a6c5 fdbd e501 50be 56f6 8a3c
00000290: 0070 97bd bc4a 7e3e 982d 1b3d 05e1 8d3e
000002a0: a50b 1d3e 09ff 90be 5941 b8be 6c1b 943e
000002b0: 020a 16be 21af 953e 473b f93b 9f83 873d
000002c0: b8be 43bb 5f78 9fbe 06a6 86be 2460 293d
000002d0: 3fbd 823d 4236 983d 8c38 f0bc 78c9 893e
000002e0: 26d0 fc3c 477a b73e a671 7bbe 2961 cebe
000002f0: 41f3 20be 0c28 953c 9b95 87be 2edc 473e
00000300: b722 2abf 8a23 883e 51ae 2a3e c4e7 303c
00000310: 83c8 c43e 399d 25bd 3e2e 2ebc c6bc e2bc
00000320: 9301 dabe 660e 113e 1aa7 7cbe a800 0d3e
00000330: 32a7 69be fb09 eabe b998 303e 885b d9be
00000340: 8aaf 7fbe 706d a63e 9ee7 c6be 5ec6 2c3d
00000350: aa61 7abd 3c0d 1fbd ce16 a53d 910d a8be
00000360: 56e0 a03e 3ca8 f1bd 3896 e2bd e3b9 f1bc
00000370: 31ef b93e d977 4fbe df51 54be c897 713d
00000380: ddfa b13d f7e8 693c dc28 0bbb 2a59 49be
00000390: c79a 0abd a64e c7be 9b1f f2bd e270 ab3e
000003a0: be66 b1bc 4ea1 2cbe ecaa e33e cdd9 0cbe
000003b0: d3fe 663e 3de2 3d3e 6ef3 46bd 54b4 383e
000003c0: b907 febe eee9 d9bd c4cc 94be 267e 7b3d
000003d0: dba3 38be 05ae bfbe 22af 8dbc ed8c c93e
000003e0: 5dad e33b 6b20 773e 7a1e 093e 2015 b3be
000003f0: 683c 303e 5672 a4be 0561 a33d 9f87 873c

linear2.bias f4 [3]
0.24428602 0.012903982 0.015055998
00000000: 1d26 7a3e 396b 533c 6fad 763c
